…
23-12-17 11:26:55.683 - INFO: Random seed: 5631
23-12-17 11:26:55.859 - INFO: Dataset [ll_dataset - ll_dataset] is created.
23-12-17 11:26:55.860 - INFO: Number of train images: 2,450, iters: 307
23-12-17 11:26:55.860 - INFO: Total epochs needed: 326 for iters 100,000
23-12-17 11:26:55.889 - INFO: Dataset [ll_dataset - ll_dataset] is created.
23-12-17 11:26:55.889 - INFO: Number of val images in [ll_dataset]: 30
23-12-17 11:27:23.571 - INFO: Network G structure: DataParallel - FourLLIE, with parameters: 119,446
23-12-17 11:27:23.572 - INFO: FourLLIE(
  (AmpNet): Sequential(
    (0): AmplitudeNet_skip(
      (conv0): Sequential(
        (0): Conv2d(3, 8, kernel_size=(1, 1), stride=(1, 1))
        (1): ProcessBlock(
          (spatial_process): SpaBlock(
            (block): Sequential(
              (0): Conv2d(8, 8, kernel_size=(3, 3), stride=(1, 1), padding=(1, 1))
              (1): LeakyReLU(negative_slope=0.1, inplace=True)
              (2): Conv2d(8, 8, kernel_size=(3, 3), stride=(1, 1), padding=(1, 1))
              (3): LeakyReLU(negative_slope=0.1, inplace=True)
            )
          )
          (frequency_process): FreBlock(
            (fpre): Conv2d(8, 8, kernel_size=(1, 1), stride=(1, 1))
            (process1): Sequential(
              (0): Conv2d(8, 8, kernel_size=(1, 1), stride=(1, 1))
              (1): LeakyReLU(negative_slope=0.1, inplace=True)
              (2): Conv2d(8, 8, kernel_size=(1, 1), stride=(1, 1))
            )
            (process2): Sequential(
              (0): Conv2d(8, 8, kernel_size=(1, 1), stride=(1, 1))
              (1): LeakyReLU(negative_slope=0.1, inplace=True)
              (2): Conv2d(8, 8, kernel_size=(1, 1), stride=(1, 1))
            )
          )
          (cat): Conv2d(16, 8, kernel_size=(1, 1), stride=(1, 1))
        )
      )
      (conv1): ProcessBlock(
        (spatial_process): SpaBlock(
          (block): Sequential(
            (0): Conv2d(8, 8, kernel_size=(3, 3), stride=(1, 1), padding=(1, 1))
            (1): LeakyReLU(negative_slope=0.1, inplace=True)
            (2): Conv2d(8, 8, kernel_size=(3, 3), stride=(1, 1), padding=(1, 1))
            (3): LeakyReLU(negative_slope=0.1, inplace=True)
          )
        )
        (frequency_process): FreBlock(
          (fpre): Conv2d(8, 8, kernel_size=(1, 1), stride=(1, 1))
          (process1): Sequential(
            (0): Conv2d(8, 8, kernel_size=(1, 1), stride=(1, 1))
            (1): LeakyReLU(negative_slope=0.1, inplace=True)
            (2): Conv2d(8, 8, kernel_size=(1, 1), stride=(1, 1))
          )
          (process2): Sequential(
            (0): Conv2d(8, 8, kernel_size=(1, 1), stride=(1, 1))
            (1): LeakyReLU(negative_slope=0.1, inplace=True)
            (2): Conv2d(8, 8, kernel_size=(1, 1), stride=(1, 1))
          )
        )
        (cat): Conv2d(16, 8, kernel_size=(1, 1), stride=(1, 1))
      )
      (conv2): ProcessBlock(
        (spatial_process): SpaBlock(
          (block): Sequential(
            (0): Conv2d(8, 8, kernel_size=(3, 3), stride=(1, 1), padding=(1, 1))
            (1): LeakyReLU(negative_slope=0.1, inplace=True)
            (2): Conv2d(8, 8, kernel_size=(3, 3), stride=(1, 1), padding=(1, 1))
            (3): LeakyReLU(negative_slope=0.1, inplace=True)
          )
        )
        (frequency_process): FreBlock(
          (fpre): Conv2d(8, 8, kernel_size=(1, 1), stride=(1, 1))
          (process1): Sequential(
            (0): Conv2d(8, 8, kernel_size=(1, 1), stride=(1, 1))
            (1): LeakyReLU(negative_slope=0.1, inplace=True)
            (2): Conv2d(8, 8, kernel_size=(1, 1), stride=(1, 1))
          )
          (process2): Sequential(
            (0): Conv2d(8, 8, kernel_size=(1, 1), stride=(1, 1))
            (1): LeakyReLU(negative_slope=0.1, inplace=True)
            (2): Conv2d(8, 8, kernel_size=(1, 1), stride=(1, 1))
          )
        )
        (cat): Conv2d(16, 8, kernel_size=(1, 1), stride=(1, 1))
      )
      (conv3): ProcessBlock(
        (spatial_process): SpaBlock(
          (block): Sequential(
            (0): Conv2d(8, 8, kernel_size=(3, 3), stride=(1, 1), padding=(1, 1))
            (1): LeakyReLU(negative_slope=0.1, inplace=True)
            (2): Conv2d(8, 8, kernel_size=(3, 3), stride=(1, 1), padding=(1, 1))
            (3): LeakyReLU(negative_slope=0.1, inplace=True)
          )
        )
        (frequency_process): FreBlock(
          (fpre): Conv2d(8, 8, kernel_size=(1, 1), stride=(1, 1))
          (process1): Sequential(
            (0): Conv2d(8, 8, kernel_size=(1, 1), stride=(1, 1))
            (1): LeakyReLU(negative_slope=0.1, inplace=True)
            (2): Conv2d(8, 8, kernel_size=(1, 1), stride=(1, 1))
          )
          (process2): Sequential(
            (0): Conv2d(8, 8, kernel_size=(1, 1), stride=(1, 1))
            (1): LeakyReLU(negative_slope=0.1, inplace=True)
            (2): Conv2d(8, 8, kernel_size=(1, 1), stride=(1, 1))
          )
        )
        (cat): Conv2d(16, 8, kernel_size=(1, 1), stride=(1, 1))
      )
      (conv4): Sequential(
        (0): ProcessBlock(
          (spatial_process): SpaBlock(
            (block): Sequential(
              (0): Conv2d(16, 16, kernel_size=(3, 3), stride=(1, 1), padding=(1, 1))
              (1): LeakyReLU(negative_slope=0.1, inplace=True)
              (2): Conv2d(16, 16, kernel_size=(3, 3), stride=(1, 1), padding=(1, 1))
              (3): LeakyReLU(negative_slope=0.1, inplace=True)
            )
          )
          (frequency_process): FreBlock(
            (fpre): Conv2d(16, 16, kernel_size=(1, 1), stride=(1, 1))
            (process1): Sequential(
              (0): Conv2d(16, 16, kernel_size=(1, 1), stride=(1, 1))
              (1): LeakyReLU(negative_slope=0.1, inplace=True)
              (2): Conv2d(16, 16, kernel_size=(1, 1), stride=(1, 1))
            )
            (process2): Sequential(
              (0): Conv2d(16, 16, kernel_size=(1, 1), stride=(1, 1))
              (1): LeakyReLU(negative_slope=0.1, inplace=True)
              (2): Conv2d(16, 16, kernel_size=(1, 1), stride=(1, 1))
            )
          )
          (cat): Conv2d(32, 16, kernel_size=(1, 1), stride=(1, 1))
        )
        (1): Conv2d(16, 8, kernel_size=(1, 1), stride=(1, 1))
      )
      (conv5): Sequential(
        (0): ProcessBlock(
          (spatial_process): SpaBlock(
            (block): Sequential(
              (0): Conv2d(16, 16, kernel_size=(3, 3), stride=(1, 1), padding=(1, 1))
              (1): LeakyReLU(negative_slope=0.1, inplace=True)
              (2): Conv2d(16, 16, kernel_size=(3, 3), stride=(1, 1), padding=(1, 1))
              (3): LeakyReLU(negative_slope=0.1, inplace=True)
            )
          )
          (frequency_process): FreBlock(
            (fpre): Conv2d(16, 16, kernel_size=(1, 1), stride=(1, 1))
            (process1): Sequential(
              (0): Conv2d(16, 16, kernel_size=(1, 1), stride=(1, 1))
              (1): LeakyReLU(negative_slope=0.1, inplace=True)
              (2): Conv2d(16, 16, kernel_size=(1, 1), stride=(1, 1))
            )
            (process2): Sequential(
              (0): Conv2d(16, 16, kernel_size=(1, 1), stride=(1, 1))
              (1): LeakyReLU(negative_slope=0.1, inplace=True)
              (2): Conv2d(16, 16, kernel_size=(1, 1), stride=(1, 1))
            )
          )
          (cat): Conv2d(32, 16, kernel_size=(1, 1), stride=(1, 1))
        )
        (1): Conv2d(16, 8, kernel_size=(1, 1), stride=(1, 1))
      )
      (convout): Sequential(
        (0): ProcessBlock(
          (spatial_process): SpaBlock(
            (block): Sequential(
              (0): Conv2d(16, 16, kernel_size=(3, 3), stride=(1, 1), padding=(1, 1))
              (1): LeakyReLU(negative_slope=0.1, inplace=True)
              (2): Conv2d(16, 16, kernel_size=(3, 3), stride=(1, 1), padding=(1, 1))
              (3): LeakyReLU(negative_slope=0.1, inplace=True)
            )
          )
          (frequency_process): FreBlock(
            (fpre): Conv2d(16, 16, kernel_size=(1, 1), stride=(1, 1))
            (process1): Sequential(
              (0): Conv2d(16, 16, kernel_size=(1, 1), stride=(1, 1))
              (1): LeakyReLU(negative_slope=0.1, inplace=True)
              (2): Conv2d(16, 16, kernel_size=(1, 1), stride=(1, 1))
            )
            (process2): Sequential(
              (0): Conv2d(16, 16, kernel_size=(1, 1), stride=(1, 1))
              (1): LeakyReLU(negative_slope=0.1, inplace=True)
              (2): Conv2d(16, 16, kernel_size=(1, 1), stride=(1, 1))
            )
          )
          (cat): Conv2d(32, 16, kernel_size=(1, 1), stride=(1, 1))
        )
        (1): Conv2d(16, 3, kernel_size=(1, 1), stride=(1, 1))
      )
    )
    (1): Sigmoid()
  )
  (conv_first_1): Conv2d(6, 16, kernel_size=(3, 3), stride=(1, 1), padding=(1, 1))
  (conv_first_2): Conv2d(16, 16, kernel_size=(3, 3), stride=(2, 2), padding=(1, 1))
  (conv_first_3): Conv2d(16, 16, kernel_size=(3, 3), stride=(2, 2), padding=(1, 1))
  (feature_extraction): Sequential(
    (0): ResidualBlock_noBN(
      (conv1): Conv2d(16, 16, kernel_size=(3, 3), stride=(1, 1), padding=(1, 1))
      (conv2): Conv2d(16, 16, kernel_size=(3, 3), stride=(1, 1), padding=(1, 1))
    )
  )
  (recon_trunk): Sequential(
    (0): ResidualBlock_noBN(
      (conv1): Conv2d(16, 16, kernel_size=(3, 3), stride=(1, 1), padding=(1, 1))
      (conv2): Conv2d(16, 16, kernel_size=(3, 3), stride=(1, 1), padding=(1, 1))
    )
  )
  (upconv1): Conv2d(32, 64, kernel_size=(3, 3), stride=(1, 1), padding=(1, 1))
  (upconv2): Conv2d(32, 64, kernel_size=(3, 3), stride=(1, 1), padding=(1, 1))
  (pixel_shuffle): PixelShuffle(upscale_factor=2)
  (HRconv): Conv2d(32, 16, kernel_size=(3, 3), stride=(1, 1), padding=(1, 1))
  (conv_last): Conv2d(16, 3, kernel_size=(3, 3), stride=(1, 1), padding=(1, 1))
  (lrelu): LeakyReLU(negative_slope=0.1, inplace=True)
  (transformer): SFNet(
    (conv1): ProcessBlock(
      (spatial_process): Identity()
      (frequency_process): FreBlock(
        (fpre): Conv2d(16, 16, kernel_size=(1, 1), stride=(1, 1))
        (process1): Sequential(
          (0): Conv2d(16, 16, kernel_size=(1, 1), stride=(1, 1))
          (1): LeakyReLU(negative_slope=0.1, inplace=True)
          (2): Conv2d(16, 16, kernel_size=(1, 1), stride=(1, 1))
        )
        (process2): Sequential(
          (0): Conv2d(16, 16, kernel_size=(1, 1), stride=(1, 1))
          (1): LeakyReLU(negative_slope=0.1, inplace=True)
          (2): Conv2d(16, 16, kernel_size=(1, 1), stride=(1, 1))
        )
      )
      (cat): Conv2d(16, 16, kernel_size=(1, 1), stride=(1, 1))
    )
    (conv2): ProcessBlock(
      (spatial_process): Identity()
      (frequency_process): FreBlock(
        (fpre): Conv2d(16, 16, kernel_size=(1, 1), stride=(1, 1))
        (process1): Sequential(
          (0): Conv2d(16, 16, kernel_size=(1, 1), stride=(1, 1))
          (1): LeakyReLU(negative_slope=0.1, inplace=True)
          (2): Conv2d(16, 16, kernel_size=(1, 1), stride=(1, 1))
        )
        (process2): Sequential(
          (0): Conv2d(16, 16, kernel_size=(1, 1), stride=(1, 1))
          (1): LeakyReLU(negative_slope=0.1, inplace=True)
          (2): Conv2d(16, 16, kernel_size=(1, 1), stride=(1, 1))
        )
      )
      (cat): Conv2d(16, 16, kernel_size=(1, 1), stride=(1, 1))
    )
    (conv3): ProcessBlock(
      (spatial_process): Identity()
      (frequency_process): FreBlock(
        (fpre): Conv2d(16, 16, kernel_size=(1, 1), stride=(1, 1))
        (process1): Sequential(
          (0): Conv2d(16, 16, kernel_size=(1, 1), stride=(1, 1))
          (1): LeakyReLU(negative_slope=0.1, inplace=True)
          (2): Conv2d(16, 16, kernel_size=(1, 1), stride=(1, 1))
        )
        (process2): Sequential(
          (0): Conv2d(16, 16, kernel_size=(1, 1), stride=(1, 1))
          (1): LeakyReLU(negative_slope=0.1, inplace=True)
          (2): Conv2d(16, 16, kernel_size=(1, 1), stride=(1, 1))
        )
      )
      (cat): Conv2d(16, 16, kernel_size=(1, 1), stride=(1, 1))
    )
    (conv4): ProcessBlock(
      (spatial_process): Identity()
      (frequency_process): FreBlock(
        (fpre): Conv2d(16, 16, kernel_size=(1, 1), stride=(1, 1))
        (process1): Sequential(
          (0): Conv2d(16, 16, kernel_size=(1, 1), stride=(1, 1))
          (1): LeakyReLU(negative_slope=0.1, inplace=True)
          (2): Conv2d(16, 16, kernel_size=(1, 1), stride=(1, 1))
        )
        (process2): Sequential(
          (0): Conv2d(16, 16, kernel_size=(1, 1), stride=(1, 1))
          (1): LeakyReLU(negative_slope=0.1, inplace=True)
          (2): Conv2d(16, 16, kernel_size=(1, 1), stride=(1, 1))
        )
      )
      (cat): Conv2d(16, 16, kernel_size=(1, 1), stride=(1, 1))
    )
    (conv5): ProcessBlock(
      (spatial_process): Identity()
      (frequency_process): FreBlock(
        (fpre): Conv2d(16, 16, kernel_size=(1, 1), stride=(1, 1))
        (process1): Sequential(
          (0): Conv2d(16, 16, kernel_size=(1, 1), stride=(1, 1))
          (1): LeakyReLU(negative_slope=0.1, inplace=True)
          (2): Conv2d(16, 16, kernel_size=(1, 1), stride=(1, 1))
        )
        (process2): Sequential(
          (0): Conv2d(16, 16, kernel_size=(1, 1), stride=(1, 1))
          (1): LeakyReLU(negative_slope=0.1, inplace=True)
          (2): Conv2d(16, 16, kernel_size=(1, 1), stride=(1, 1))
        )
      )
      (cat): Conv2d(16, 16, kernel_size=(1, 1), stride=(1, 1))
    )
  )
  (recon_trunk_light): Sequential(
    (0): ResidualBlock_noBN(
      (conv1): Conv2d(16, 16, kernel_size=(3, 3), stride=(1, 1), padding=(1, 1))
      (conv2): Conv2d(16, 16, kernel_size=(3, 3), stride=(1, 1), padding=(1, 1))
    )
    (1): ResidualBlock_noBN(
      (conv1): Conv2d(16, 16, kernel_size=(3, 3), stride=(1, 1), padding=(1, 1))
      (conv2): Conv2d(16, 16, kernel_size=(3, 3), stride=(1, 1), padding=(1, 1))
    )
    (2): ResidualBlock_noBN(
      (conv1): Conv2d(16, 16, kernel_size=(3, 3), stride=(1, 1), padding=(1, 1))
      (conv2): Conv2d(16, 16, kernel_size=(3, 3), stride=(1, 1), padding=(1, 1))
    )
    (3): ResidualBlock_noBN(
      (conv1): Conv2d(16, 16, kernel_size=(3, 3), stride=(1, 1), padding=(1, 1))
      (conv2): Conv2d(16, 16, kernel_size=(3, 3), stride=(1, 1), padding=(1, 1))
    )
    (4): ResidualBlock_noBN(
      (conv1): Conv2d(16, 16, kernel_size=(3, 3), stride=(1, 1), padding=(1, 1))
      (conv2): Conv2d(16, 16, kernel_size=(3, 3), stride=(1, 1), padding=(1, 1))
    )
    (5): ResidualBlock_noBN(
      (conv1): Conv2d(16, 16, kernel_size=(3, 3), stride=(1, 1), padding=(1, 1))
      (conv2): Conv2d(16, 16, kernel_size=(3, 3), stride=(1, 1), padding=(1, 1))
    )
  )
)
23-12-17 11:27:27.252 - INFO: Model [enhancement_model] is created.
23-12-17 11:27:27.252 - INFO: Start training from epoch: 0, iter: 0
23-12-17 11:32:33.942 - INFO: [epoch:  3, iter:   1,000, lr:(9.900e-05,)] l_pix: 3.3205e+05 l_vgg: 3.9319e+05 
23-12-17 11:33:46.056 - INFO: # Validation # PSNR: 1.9688e+01: best psnr : 1.9688e+01
…
